data.pth (torch, 5418 bytes, 6 tensors)

l1.weight f4 [8, 54]
000000 25 db 0c 3f 22 2e 38 3c b5 b0 94 3d 64 64 8d 3e
       0.5502189 0.011241468 0.07260267 0.27615654
000010 e0 64 39 3d 5c 39 38 bf ce 6d 1f be d2 07 b2 bd
       0.045262218 -0.71962523 -0.15569231 -0.08692898
000020 57 47 4f bd 8b e2 c5 bd 1b 9d 7b 3e fe 55 a7 3e
       -0.050605144 -0.0966235 0.2457165 0.32682794
000030 52 d9 71 be 5b c1 f2 3e 40 7b 28 be 0c da d3 3e
       -0.23618057 0.47413144 -0.16453266 0.41377294
000040 8c b8 9a 3e b7 23 3a bf 66 d0 8e be 8e b2 f4 3e
       0.30218923 -0.72710747 -0.2789337 0.47792476
000050 f3 04 0e 3f 2e 90 f0 3e dc 74 a3 3e 9d 2c d9 3e
       0.554763 0.46985 0.31925094 0.4241685
000060 f4 b8 3f 3e dd 2c 34 3e 08 f7 01 be b4 a4 a2 be
       0.18722898 0.17595239 -0.12691891 -0.31766284
000070 46 fd 25 be 05 f9 4c be fa 2e af be 74 4c be 3e
       -0.16209897 -0.20016868 -0.34215528 0.37167704
000080 e3 f2 15 3f 22 ee f1 bc f8 51 92 be 34 5b db 3e
       0.5857374 -0.029532496 -0.28578162 0.4284302
000090 93 7d ac be 21 76 71 be 89 0a 47 bd e9 ee 5e bd
       -0.33689556 -0.23580219 -0.04859403 -0.05442706
0000a0 aa fc b7 be ed 55 9e be a9 40 47 3e 71 b8 fd bd
       -0.35934955 -0.3092493 0.1945826 -0.12388695
0000b0 d2 0f 7b 3e aa f8 20 be e6 45 8a 3f f8 cc cd 3e
       0.24517754 -0.15719858 1.0802581 0.4019544
0000c0 37 05 26 3e 02 b4 a0 be 64 73 b3 3e 85 95 5e be
       0.16212927 -0.31387335 0.35048974 -0.21736725
0000d0 ea ec 3f be e3 9b 02 3e c3 80 bc 3e 92 fb b8 3c
       -0.1874272 0.12754779 0.36816987 0.022580896
0000e0 e9 90 02 3f 47 cc d1 bd 18 a2 cf bd ac 17 da be
       0.51002365 -0.10244041 -0.10138339 -0.42596185
0000f0 b9 bd 9c 3e ae 91 91 3e 04 60 bf 3e 27 0a 8a 3e
       0.30613497 0.28431457 0.37377942 0.2696087
000100 86 e9 4e be a2 92 28 3f 27 71 f6 3d a2 4a 04 3f
       -0.2020627 0.65848744 0.12033301 0.5167638
000110 a3 46 03 bd e8 d9 80 3e 6a 77 65 be 61 1c da be
       -0.032049786 0.2516625 -0.22408834 -0.42599776
000120 57 bb 8d be 64 25 da be 58 72 d8 3e eb 19 da be
       -0.2768199 -0.42606652 0.42274737 -0.425979
000130 ea 13 da be d3 8a b8 3e 52 1a 06 3f 87 a1 56 be
       -0.42593318 0.36043414 0.5238391 -0.20960055
000140 ec d3 38 be ac 4f 9c be ac 46 4f bb 7a f3 9b be
       -0.18049592 -0.30529535 -0.0031627817 -0.30459195
000150 94 f1 89 be bb 0d 46 3f 5b b1 77 3e 89 c6 9f 3e
       -0.26942122 0.773647 0.2418875 0.31206158
000160 54 d5 c2 bd b4 c7 b8 3e a4 d8 33 bd a3 a3 09 3f
       -0.09513345 0.3608986 -0.043907776 0.53765315
000170 fd c6 2b 3e c8 ad 12 3e 2a d2 97 be fc 5a f5 be
       0.16775127 0.14324105 -0.2965253 -0.47920978
000180 85 f3 10 3f d1 8a bf bc 5d 89 27 3f 96 69 3e be
       0.5662158 -0.023381623 0.65443975 -0.18594965
000190 95 85 5f 3f 69 49 8c 3e 9b cb e9 bd 90 a8 b6 be
       0.87313205 0.27399758 -0.11415788 -0.35675478
0001a0 fe 5d 00 3f 79 dd c1 be f0 2b 57 3e ff 56 94 3e
       0.5014342 -0.37864283 0.21012855 0.28972623
0001b0 5a 45 27 3f 20 c7 0e be 74 f0 e7 3b 65 68 de 3e
       0.653402 -0.13943148 0.007078225 0.43439022
0001c0 7a fe 23 3f bf bf e3 be 55 f6 75 3e 1f 3c 00 3e
       0.64060175 -0.44482228 0.2401975 0.12522934
0001d0 9f 18 ef bd 01 6d 52 3e 6d 0b f3 3e ff b8 82 be
       -0.11674618 0.20549394 0.47469655 -0.25531766
0001e0 6f f7 ac bd 4f 20 ee be d2 e5 32 be 4a 6a 6d be
       -0.08445632 -0.46509025 -0.17470482 -0.23185077
0001f0 25 38 fa 3e 9c 05 f5 be ad ea de 3e 61 24 3e 3f
       0.4887096 -0.47855842 0.43538418 0.7427426
000200 46 24 01 3f bc 16 27 3f 75 c8 2b 3f 4a 20 fe 3e
       0.50445974 0.65269065 0.6710275 0.4963401
000210 20 b4 4d 3c 49 17 d6 3e d0 9d e9 3e f0 8c 88 be
       0.012555152 0.4181464 0.45628214 -0.26670027
000220 33 8f 7b 3e 64 33 d5 be 23 33 8b be 31 ba ec be
       0.24566345 -0.4164077 -0.27187452 -0.46235803
000230 2e f7 04 3f 8c cb 86 bd 0d a5 5a be 4e 9e 0a be
       0.51939666 -0.06581792 -0.21352024 -0.13536951
000240 ce fa 01 3d 64 23 9c be 09 0a 0f 3e a6 62 08 3e
       0.031733327 -0.3049575 0.13968672 0.13318881
000250 fa 5a d5 be b3 fe 07 3f 3a 06 83 be 78 de 64 be
       -0.41670972 0.53123015 -0.25590688 -0.2235049
000260 8b 4a 0f be d9 25 5c be 40 1b 53 3f b2 85 e8 3e
       -0.1399328 -0.21498813 0.82463455 0.454145
000270 ba a4 c2 3e b7 7e 0b 3f c3 b5 07 be ef a8 80 3e
       0.380163 0.54490227 -0.1325293 0.25128886
000280 4c 03 a0 3e b0 c6 3e 3e 7f 6b 37 bd 83 c5 d9 be
       0.31252515 0.18630481 -0.04478025 -0.42533502
000290 46 1b a8 3e 85 fb d8 3d d1 e0 e3 3e cb 14 ea 3e
       0.32833308 0.105948485 0.4450746 0.4571899
0002a0 af 0c d4 3e 6a 1c b4 3e e6 39 b3 3e 9a e2 b1 3e
       0.41415927 0.35177928 0.3500511 0.34743196
0002b0 d0 e4 6e 3e b3 05 9a be 06 52 08 3f f0 cb 60 be
       0.23329473 -0.30082473 0.5325016 -0.21952796
0002c0 26 48 63 be 59 0e 28 be 96 95 8c 3e d1 02 52 3e
       -0.22195491 -0.16411723 0.27457875 0.20508887
0002d0 39 b5 c5 3e fc ad da 3e 5a e7 f5 bd 0a 03 b6 3e
       0.38614824 0.42710865 -0.120070174 0.35549194
0002e0 c0 9b 41 3e ea ce 81 3d 36 73 0c 3e 15 fc 5b 3e
       0.1890707 0.06338294 0.13715824 0.2148288
0002f0 51 8c 03 3f c5 ab d6 be e9 8e 19 3e 53 f1 df be
       0.5138598 -0.41927925 0.14995922 -0.43738803
000300 62 c2 e5 3d 5b 66 f1 bd 04 85 19 3d 2c 82 d7 3e
       0.11218716 -0.11787101 0.03748037 0.420915
000310 57 9a 84 be 44 02 3c be 76 8b a7 3e 43 81 6b 3e
       -0.25899002 -0.1836024 0.32723588 0.22998528
000320 f0 95 89 3e 89 f9 b8 3e f6 29 5b 3e a9 3b fe 3e
       0.26872206 0.3612788 0.21402726 0.49654892
000330 b0 45 39 be 04 80 63 be be 39 50 3d ca 26 3c bd
       -0.1809299 -0.22216803 0.050836317 -0.04593543
000340 5c 0c be be ee 64 97 3d 74 7d 96 3e 07 a2 08 3f
       -0.37118804 0.07392298 0.29392588 0.53372234
000350 d4 e7 b5 bd 07 8a b5 3e 38 54 86 3e b5 a8 c8 3e
       -0.08882108 0.3545687 0.2623613 0.39191213
000360 25 42 28 bd 36 d2 a1 3e 4a d7 93 be 39 53 b7 3e
       -0.041078705 0.3160569 -0.2887519 0.3580568
000370 1c d3 ea 3e d7 62 9c bd 8b 73 14 3c 44 5d d0 bd
       0.4586419 -0.0763604 0.009060751 -0.10174039
000380 8d 83 16 bf 2b 02 8f bd b3 55 cb 3e 35 26 aa be
       -0.5879448 -0.069828354 0.3971382 -0.33232275
000390 99 db a2 3e 5b f2 c9 be 38 8e 59 3e a4 50 37 be
       0.31808165 -0.39442715 0.21245658 -0.17901856
0003a0 20 c8 0c 3f e0 73 be 3c d2 c4 ae 3e 29 42 19 3f
       0.54992867 0.023248613 0.34134537 0.5986658
0003b0 d9 6d 36 be fd d5 39 3f 18 54 3d 3f a8 2f f6 3e
       -0.17815341 0.72592145 0.7395644 0.48083234
0003c0 22 6e a6 be 14 75 bd 3e 37 3a cd 3e b7 58 b7 3e
       -0.325059 0.37003386 0.40083477 0.35809872
0003d0 ee df 18 3e 02 1e 16 3e 6b d6 53 3d f0 72 90 be
       0.14929172 0.14659885 0.051718157 -0.2821269
0003e0 45 dc ba 3c 9e 5b e2 be a8 c9 b6 3e bc b8 81 be
       0.02281011 -0.44210523 0.35700727 -0.25336254
0003f0 74 b8 8c 3e 78 94 cc be 6f a7 02 bd f4 9e 2e bd
       0.27484477 -0.39957023 -0.03189796 -0.04263206

l1.bias f4 [8]
000000 15 3d 3b 3f 5c 28 da 3e f8 83 53 3f d1 be 3f 3f
       0.7314008 0.42608917 0.82623243 0.7490054
000010 2d a9 61 3f 90 ff 9c 3e 65 77 55 3f 9d 56 fc 3e
       0.88148767 0.3066373 0.83385307 0.4928483

l2.weight f4 [8, 8]
000000 c1 fe f0 3e 00 aa 49 bf fb 48 85 3f 8a 0f 6f 3e
       0.47069362 -0.78775024 1.0412897 0.23345771
000010 e3 73 86 3f 5b d7 30 bf 88 bf 7f 3e 6e c4 e8 be
       1.0504116 -0.69078606 0.24975407 -0.45462364
000020 84 93 58 bf b7 62 16 3d ec e9 b1 be 50 6c eb bc
       -0.8460009 0.036715236 -0.3474878 -0.02873817
000030 f3 bd 05 3f bf 92 2c 3f 33 d9 89 3e 82 cb 87 3f
       0.52242965 0.67411417 0.26923522 1.0608981
000040 ce 0b 45 3f af 15 b0 3e 62 05 a2 3f f4 5f 41 3f
       0.7697114 0.34391543 1.2657893 0.7553704
000050 10 2b ef 3e b7 b2 de 3c 84 1d 82 bf a1 79 cd 3e
       0.46712542 0.027184827 -1.0165257 0.40131858
000060 57 0c 8a be 62 2d 43 be 87 2b e6 3e 4a 45 6b 3f
       -0.2696254 -0.19060281 0.44955084 0.919026
000070 72 12 4e 3f 12 a3 79 3f 34 a8 5b bf a6 d9 16 bf
       0.80496895 0.9751445 -0.8580353 -0.58925855
000080 2c e0 94 bf a5 42 b5 be 5b 22 e7 be 1c e5 81 3f
       -1.1630912 -0.35402408 -0.451434 1.0148044
000090 52 e7 33 3e 6e eb 35 3f cc aa 1d 3e 4c 1f 68 3f
       0.1756871 0.7106236 0.15397185 0.90672755
0000a0 01 51 bc 3f 36 70 91 3f ef 88 a2 3e 64 60 d5 3e
       1.471222 1.1362369 0.31745097 0.41675103
0000b0 b4 6f 89 be 17 87 61 bf bb f9 c0 3f 0a 84 27 3f
       -0.26843035 -0.88096756 1.5076212 0.6543585
0000c0 95 41 ae be 65 7d 84 bf 12 9f 27 3e ee 78 3d 3d
       -0.3403441 -1.0350767 0.16369274 0.046257906
0000d0 44 80 89 3f 09 e4 59 3f 86 8c dc 3e 6a 91 0c bf
       1.0742269 0.8511358 0.4307596 -0.54909384
0000e0 ef a4 ef be 6c 70 86 bf 0a 7e a6 3e 3e 8d 43 3f
       -0.46805522 -1.0503058 0.32518035 0.76387393
0000f0 02 52 3a 3f c0 2c 4e bf 33 da c4 3e 93 9f d1 3e
       0.72781384 -0.80537033 0.38447723 0.40942058

l2.bias f4 [8]
000000 f6 55 05 3f b3 6e f9 3e 50 48 32 3e cc ad a5 3d
       0.5208429 0.4871727 0.17410398 0.0808979
000010 f1 da 06 3f cc 48 61 3f a4 fb 0c 3f b1 27 a8 3d
       0.5267783 0.88001704 0.55071473 0.082106955

l3.weight f4 [7, 8]
000000 8a b0 b5 bf 66 53 27 bf 28 57 7d bf dd fa 46 bf
       -1.41945 -0.6536163 -0.98961115 -0.77726537
000010 cc ee 0d bf ba bc 66 3f 27 1c e3 be 86 94 3b bf
       -0.554425 0.90131724 -0.44357416 -0.73273504
000020 13 09 3f be bf 52 1b 3f e9 f2 66 bf 31 ad a9 3e
       -0.18655805 0.60673136 -0.902144 0.33139947
000030 f8 18 b8 3e 21 b4 6f bf fb 14 14 3f 3c 18 76 bf
       0.3595655 -0.9363423 0.57844514 -0.9613073
000040 f1 ad 21 bc 51 c0 00 3f c7 bc 1e bf b6 42 a4 bf
       -0.009868131 0.5029345 -0.620068 -1.2832859
000050 b5 15 19 3f 3c 61 3a bd 08 79 f0 bd 46 b0 71 3f
       0.5979875 -0.045502886 -0.11741835 0.94409597
000060 ce 08 2f 3f 87 52 1b bf a7 2f bd 3e ed f4 10 be
       0.6837281 -0.606728 0.36950418 -0.14155932
000070 89 c6 a2 bf 35 d5 c2 be f1 bd 58 3e 76 08 18 3f
       -1.2716838 -0.3805329 0.21166207 0.5938791
000080 05 6e 4a 3d be 9c de be 1c 0b eb 3e de de 2d 3f
       0.04942133 -0.4347896 0.45906913 0.67918193
000090 13 e6 e0 bc 1e 07 bf bf 5d c3 b1 3d 3b 43 a4 3e
       -0.027453458 -1.4924047 0.08679841 0.32082543
0000a0 1c 2e 83 bf dc b3 e4 3e 15 d9 2e 3f d4 2c 8c 3e
       -1.0248446 0.44668472 0.6829999 0.2737795
0000b0 1d a3 ba 3e 9b 4f 8a be f5 95 33 bf f9 e8 79 bf
       0.3645257 -0.2701386 -0.7015069 -0.97621113
0000c0 5b 2c 15 3f 1a 74 21 bf 0d b6 e4 3e 41 c5 c0 bf
       0.58270806 -0.6306778 0.44670144 -1.5060197
0000d0 56 cb 31 bf 5d 6a cd 3e d9 e0 a1 bf fe c6 bd bf
       -0.6945089 0.4012021 -1.2646743 -1.4826353

l3.bias f4 [7]
000000 45 a4 4c 3e 71 a8 11 be c6 97 65 be 99 d6 4c 3e
       0.19984539 -0.14224412 -0.22421178 0.20003738
000010 65 77 0b bf 73 33 8b be 7f d3 49 3e
       -0.54479057 -0.2718769 0.19709586
